…
   "cell_type": "code",
   "execution_count": 83,
   "metadata": {},
   "outputs": [
    {
     "name": "stdout",
     "output_type": "stream",
     "text": [
      "Model: \"model_9\"\n",
      "_________________________________________________________________\n",
      "Layer (type)                 Output Shape              Param #   \n",
      "=================================================================\n",
      "input_15 (InputLayer)        [(None, 28, 3, 3)]        0         \n",
      "_________________________________________________________________\n",
      "conv2d_15 (Conv2D)           (None, 28, 3, 16)         448       \n",
      "_________________________________________________________________\n",
      "activation_15 (Activation)   (None, 28, 3, 16)         0         \n",
      "_________________________________________________________________\n",
      "max_pooling2d_15 (MaxPooling (None, 14, 2, 16)         0         \n",
      "_________________________________________________________________\n",
      "dropout_21 (Dropout)         (None, 14, 2, 16)         0         \n",
      "_________________________________________________________________\n",
      "conv2d_16 (Conv2D)           (None, 14, 2, 32)         4640      \n",
      "_________________________________________________________________\n",
      "activation_16 (Activation)   (None, 14, 2, 32)         0         \n",
      "_________________________________________________________________\n",
      "max_pooling2d_16 (MaxPooling (None, 7, 1, 32)          0         \n",
      "_________________________________________________________________\n",
      "dropout_22 (Dropout)         (None, 7, 1, 32)          0         \n",
      "_________________________________________________________________\n",
      "conv2d_17 (Conv2D)           (None, 7, 1, 64)          18496     \n",
      "_________________________________________________________________\n",
      "activation_17 (Activation)   (None, 7, 1, 64)          0         \n",
      "_________________________________________________________________\n",
      "max_pooling2d_17 (MaxPooling (None, 4, 1, 64)          0         \n",
      "_________________________________________________________________\n",
      "dropout_23 (Dropout)         (None, 4, 1, 64)          0         \n",
      "_________________________________________________________________\n",
      "conv2d_18 (Conv2D)           (None, 4, 1, 128)         73856     \n",
      "_________________________________________________________________\n",
      "activation_18 (Activation)   (None, 4, 1, 128)         0         \n",
      "_________________________________________________________________\n",
      "max_pooling2d_18 (MaxPooling (None, 2, 1, 128)         0         \n",
      "_________________________________________________________________\n",
      "dropout_24 (Dropout)         (None, 2, 1, 128)         0         \n",
      "_________________________________________________________________\n",
      "conv2d_19 (Conv2D)           (None, 2, 1, 256)         295168    \n",
      "_________________________________________________________________\n",
      "activation_19 (Activation)   (None, 2, 1, 256)         0         \n",
      "_________________________________________________________________\n",
      "max_pooling2d_19 (MaxPooling (None, 1, 1, 256)         0         \n",
      "_________________________________________________________________\n",
      "dropout_25 (Dropout)         (None, 1, 1, 256)         0         \n",
      "_________________________________________________________________\n",
      "flatten_3 (Flatten)          (None, 256)               0         \n",
      "_________________________________________________________________\n",
      "dropout_26 (Dropout)         (None, 256)               0         \n",
      "_________________________________________________________________\n",
      "dense_6 (Dense)              (None, 512)               131584    \n",
      "_________________________________________________________________\n",
      "dropout_27 (Dropout)         (None, 512)               0         \n",
      "_________________________________________________________________\n",
      "dense_7 (Dense)              (None, 1)                 513       \n",
      "=================================================================\n",
      "Total params: 524,705\n",
      "Trainable params: 524,705\n",
      "Non-trainable params: 0\n",
      "_________________________________________________________________\n"
     ]
    }
   ],
   "source": [
    "import numpy\n",
    "numpy.random.seed(100)\n",
    "import os\n",
    "import h5py\n",
    "import librosa\n",
…
